code/newdiseaseprediction/model.onnx (onnx, 41290 bytes, 7 tensors)

functional_7_1/embedding_age_1/GatherV2/ReadVariableOp:0 f4 [10, 4]
0.21592769 0.4488837 0.5950279 -0.41139805 0.13343705 -0.04512307 0.02525574 0.032557797
-0.3587528 0.059484314 -0.06273296 0.40239447 -0.0532985 -0.081046335 -0.17530815 0.063207455
-0.11580253 -0.033835415 0.012926638 0.04714038 -0.124319956 -0.16239157 0.012893719 0.17376526
-0.006912471 0.058244545 -0.029954141 -0.0130462395 0.018343829 -0.26852807 -0.022042453 0.083182365
-0.092176065 -0.052713145 -0.0044766353 0.02720657 0.07753851 -0.035726674 0.04139091 -0.08271023
00000000: 261c 5d3e 16d4 e53e c053 183f c4a2 d2be
00000010: b9a3 083e f8d2 38bd 20e5 ce3c 535b 053d
00000020: 72ae b7be d3a5 733d 237a 80bd a606 ce3e
00000030: 874f 5abd 9ffb a5bd fb83 33be e972 813d
00000040: e029 edbd 0197 0abd 40ca 533c 4516 413d
00000050: 769b febd fa49 26be 2d40 533c 85ef 313e
00000060: 0282 e2bb d591 6e3d 6362 f5bc e5bf 55bc
00000070: cc45 963c 837c 89be 6092 b4bc 845b aa3d
00000080: cec6 bcbd bde9 57bd bdb0 92bb 50e0 de3c
00000090: 83cc 9e3d 2256 12bd 8489 293d fb63 a9bd

functional_7_1/dense_25_1/Cast/ReadVariableOp:0 f4 [64, 27]
-0.16836093 0.036319006 0.18532789 -0.32406875 -0.17781712 0.13414994 0.25992003 -0.21653129
-0.082003556 -0.1823287 -0.5336873 -0.4162105 -0.164385 -0.20630234 -0.2994187 0.09315437
0.17681472 0.21079874 -0.07605823 -0.25943232 0.2775137 -0.46880236 0.07148883 -0.22689532
-0.054337308 0.33310366 -0.17339131 0.07961162 -0.22467123 0.17479067 0.012939862 -0.357318
0.12616865 0.087938905 -0.31854886 -0.22672665 0.08479671 0.21006306 0.05840624 -0.40024856
-0.09849519 -0.1037837 0.016692394 0.06593358 -0.07350731 0.021936541 0.17363 -0.22098723
-0.07420476 -0.38284668 -0.38401365 -0.46440127 0.085645065 -0.31050876 0.23744872 -0.35834685
-0.21769002 0.09033958 -0.28492713 -0.13253453 -0.010997605 0.061398573 -0.29991525 0.057948336
0.025064074 -0.000100385296 -0.31240723 0.07778084 0.23052113 -0.3467677 -0.38727507 -0.30307078
-0.07054433 -0.2481811 -0.03499928 0.1800258 0.1606382 0.23692259 0.21146014 -0.41953218
0.095274925 0.19595383 0.2615417 -0.5497849 0.16978125 -0.49911204 0.0849556 -0.4417263
-0.11999226 0.17449595 -0.28964955 -0.23985353 -0.11931732 -0.3002408 -0.51559275 0.21941274
-0.34468362 -0.12176593 0.0771838 0.16145267 0.15895574 -0.289785 -0.48816872 0.10075153
0.15914321 -0.3598835 0.17153369 0.107348315 0.102128595 -0.37165484 -0.5337783 -0.0647415
0.24902764 0.07430696 0.0021095066 0.1001441 0.09629185 -0.51132447 -0.23502378 -0.5384128
-0.34377098 0.23984478 -0.14454825 -0.5425046 0.07115557 -0.10001547 0.13035677 -0.17942026
-0.14251474 0.18260203 -0.5520228 -0.689552 -0.68340176 -0.26713282 -0.42168906 0.12619078
-0.29284197 -0.20601892 0.016870793 0.17553627 -0.05806761 -0.37110248 -0.2123286 0.23550345
0.08233097 0.15795034 0.17997836 0.23538864 0.12809508 -0.26952553 -0.070597984 -0.19710913
-0.34148943 -0.28486848 -0.4602765 -0.3208882 -0.44774574 0.16986312 0.092271425 0.24558695
-0.17325814 0.22793762 -0.2146821 -0.13735743 -0.31897074 0.18963555 0.08041866 -0.18586965
-0.2315548 0.12843154 0.20299564 -0.35080227 -0.06614273 0.3281606 -0.058393188 -0.4987951
-0.18479612 -0.34502652 -0.36374784 -0.24121071 -0.18893026 0.13936053 -0.017175583 -0.42994258
0.26033112 0.18631838 -0.50149286 -0.13085255 0.06103463 -0.3070285 -0.13621493 0.102095366
-0.00083858735 0.11083254 0.11060453 0.080616005 0.19846575 -0.1304783 0.16818167 -0.20082292
-0.10039552 0.15446927 -0.2846608 -0.10693997 0.21055473 0.10933819 -0.06012085 0.1091227
0.25343806 0.08321639 -0.16517997 0.24519117 -0.25042665 -0.27516222 0.29101887 -0.110861525
-0.5109295 0.16276897 -0.22565398 0.13046354 -0.0029066617 0.04435519 -0.41758958 0.08620131
-0.011268236 -0.18053952 0.030274095 -0.41682318 0.14767113 -0.6174686 -0.24365675 -0.4439314
-0.00025727114 -0.021566529 0.05424068 0.13809665 -0.27760923 -0.503905 0.0016419812 -0.053831935
-0.46892798 0.20547855 0.058881737 0.22492407 0.25142837 -0.17709629 -0.30372193 -0.026281474
-0.19266136 0.09762675 0.2026289 -0.3128471 0.09404023 0.24179384 -0.06262212 0.11449373
00000000: cf66 2cbe 3dc3 143d 98c6 3d3e 57ec a5be
00000010: b115 36be 9a5e 093e 3d14 853e 61ba 5dbe
00000020: 7bf1 a7bd 60b4 3abe bb9f 08bf 8b19 d5be
00000030: 8b54 28be ec40 53be 684d 99be b8c7 be3d
00000040: eb0e 353e a0db 573e 6bc4 9bbd 50d4 84be
00000050: 4716 8e3e dd06 f0be bc68 923d 3f57 68be
00000060: cc90 5ebd 908c aa3e 7e8d 31be 6b0b a33d
00000070: 3710 66be 53fc 323e b701 543c 63f2 b6be
00000080: 5b32 013e 5019 b43d d618 a3be 082b 68be
00000090: e6a9 ad3d c51a 573e 623b 6f3d 61ed ccbe
000000a0: d9b7 c9bd 8c8c d4bd 7dbe 883c 2f08 873d
000000b0: 008b 96bd 43b4 b33c 10cc 313e 7a4a 62be
000000c0: aaf8 97bd 7b04 c4be 709d c4be 01c6 edbe
000000d0: ae66 af3d 01fb 9ebe c225 733e 3d79 b7be
000000e0: 22ea 5ebe f503 b93d f8e1 91be 22b7 07be
000000f0: 4c2f 34bc 127d 7b3d 7e8e 99be 3c5b 6d3d
00000100: 2c53 cd3c f285 d2b8 d7f3 9fbe 904b 9f3d
00000110: bb0d 6c3e 898b b1be eb48 c6be 182c 9bbe
00000120: 8c79 90bd 3023 7ebe 685b 0fbd af58 383e
00000130: 577e 243e d69b 723e 0289 583e eccc d6be
00000140: 801f c33d 1fa8 483e cbe8 853e b4be 0cbf
00000150: 23db 2d3e 9d8b ffbe 34fd ad3d f329 e2be
00000160: 81be f5bd 11af 323e f24c 94be 2a9c 75be
00000170: a45c f4bd 2ab9 99be e3fd 03bf bcad 603e
00000180: 5f7a b0be 6a60 f9bd 8a12 9e3d d953 253e
00000190: 4bc5 223e b35e 94be 40f1 f9be d156 ce3d
000001a0: 70f6 223e a642 b8be 87a6 2f3e 6fd9 db3d
000001b0: cc28 d13d 8b49 bebe b2a5 08bf 3197 84bd
000001c0: 1a01 7f3e 3f2e 983d a63f 0a3b 5a18 cd3d
000001d0: a934 c53d 29e6 02bf 13aa 70be 6cd5 09bf
000001e0: c002 b0be df99 753e 7504 14be 95e1 0abf
000001f0: 03ba 913d e9d4 ccbd 3f7c 053e f2b9 37be
00000200: 62ef 11be 07fc 3a3e 5e51 0dbf 7b86 30bf
00000210: 6bf3 2ebf a2c5 88be a1e7 d7be 2838 013e
00000220: 62ef 95be a0f6 52be 9e34 8a3c c8bf 333e
00000230: 4dd8 6dbd 2501 bebe ab6c 59be d127 713e
00000240: 249d a83d bcbd 213e 3f4c 383e b809 713e
00000250: 5b2b 033e 40ff 89be ad95 90bd fad6 49be
00000260: b4d7 aebe 48da 91be 5da9 ebbe 754b a4be
00000270: ee3e e5be 99f0 2d3e cdf8 bc3d 257b 7b3e
00000280: 956a 31be 7b68 693e a0d5 5bbe 6da7 0cbe
00000290: 2250 a3be d22f 423e 8ab2 a43d 9d54 3ebe
000002a0: b41c 6dbe 8f83 033e 17de 4f3e 5b9c b3be
000002b0: d775 87bd ab04 a83e b22d 6fbd 1262 ffbe
000002c0: 323b 3dbe 51a7 b0be 283d babe f1ff 76be
000002d0: ef76 41be 87b4 0e3e cfb3 8cbc 6f21 dcbe
000002e0: 1f4a 853e 3fca 3e3e d661 00bf 36fe 05be
000002f0: 73ff 793d d732 9dbe ed7b 0bbe 6017 d13d
00000300: a5d4 5bba 2cfc e23d a184 e23d 011a a53d
00000310: 9b3a 4b3e 1a9c 05be d137 2c3e 86a4 4dbe
00000320: 2b9c cdbd 312d 1e3e 0fbf 91be 5803 dbbd
00000330: a99b 573e b3ec df3d 4841 76bd b97b df3d
00000340: a2c2 813e 5b6d aa3d f024 29be 6513 7b3e
00000350: ec37 80be 10e2 8cbe 6d00 953e 5e0b e3bd
00000360: 47cc 02bf e9ac 263e d611 67be 3c98 053e
00000370: b17d 3ebb caad 353d 4dce d5be 508a b03d
00000380: 689e 38bc 5adf 38be 6101 f83c d969 d5be
00000390: 1a37 173e 6c12 1ebf 2881 79be fa4a e3be
000003a0: 59e2 86b9 4aac b0bc 7a2b 5e3d 3569 0d3e
000003b0: cc22 8ebe ebff 00bf bf37 d73a e07e 5cbd
000003c0: 5417 f0be f868 523e fa2d 713d 7f52 663e
000003d0: 38bb 803e bb58 35be 7181 9bbe 3f4c d7bc
000003e0: 0549 45be 89f0 c73d f37d 4f3e 7f2d a0be
000003f0: 2a98 c03d ce98 773e 0740 80bd b07b ea3d

functional_7_1/dense_25_1/Add/ReadVariableOp:0 f4 [27]
-0.15733191 -0.14668174 0.14718895 -0.043213684 0.03989156 0.06602939 0.06515382 -0.0529347
-0.14075185 -0.24735133 0.0015025971 -0.04446903 0.2018446 0.1390378 -0.007926085 0.07958764
-0.14977875 -0.20386648 0.15215743 -0.15828267 0.15812874 0.10835278 -0.07251869 -0.055141564
0.089650325 0.027656838 -0.09395415
00000000: 9e1b 21be bd33 16be b3b8 163e d500 31bd
00000010: 5565 233d 6b3a 873d 5e6f 853d 0ed2 58bd
00000020: 4121 10be ab49 7dbe cbf2 c43a 2825 36bd
00000030: 5ab0 4e3e ed5f 0e3e 69dc 01bc d8fe a23d
00000040: 9a5f 19be 60c2 50be 28cf 1b3e da14 22be
00000050: 80ec 213e 10e8 dd3d ae84 94bd 1fdc 61bd
00000060: 979a b73d 9890 e23c 096b c0bd

functional_7_1/dense_24_1/Cast/ReadVariableOp:0 f4 [64, 64]
0.024335893 -0.101065695 0.12773061 0.079550385 -0.056797247 0.075101286 0.13238716 -0.08837871
0.077126876 -0.035188723 0.08290635 -0.263318 -0.118423596 -0.07319908 -0.14951494 0.08940834
-0.23214047 0.07541552 0.35974807 0.012844644 0.08384919 0.09153753 0.16790521 0.0148914
-0.009983576 0.17902185 0.018490506 0.16586037 -0.02275197 0.25375175 0.0068106204 0.10954653
-0.30019864 -0.02975559 0.26797068 0.25394118 0.17271633 0.014514553 0.08471267 -0.18291183
0.2461795 0.011695712 0.00022028148 0.009083197 0.21353292 0.19326314 -0.115625046 -0.061521783
-0.17446779 -0.0075843874 -0.10384477 -0.13454302 -0.038811162 -0.2079098 -0.03630374 0.22061014
-0.015369972 0.11025609 0.040439527 0.05668994 0.07300838 -0.082590155 0.019236688 0.11166236
-0.013366973 -0.1450731 0.09754567 0.111779265 -0.11797134 -0.04461964 0.042612806 0.007983054
0.055794116 0.184938 0.085926235 0.10391364 -0.112962894 0.12836029 0.1060544 -0.15774694
0.1546852 -0.03779391 0.0901306 0.33990955 0.15906271 0.10493572 0.059225924 0.06688711
0.2580595 0.019117896 -0.13440563 -0.2953734 -0.029776834 -0.15487029 0.1326649 -0.14622915
-0.0912097 -0.114370875 -0.06755992 -0.14605281 -0.1522377 0.043090273 -0.13150859 -0.20325334
0.04570221 -0.028611798 0.009366397 -0.14310665 0.18299 0.092242114 0.21388191 0.22719327
-0.048873834 0.22092971 -0.11371182 0.31712964 0.026905635 -0.110795766 -0.046398472 0.019744549
0.1313437 -0.016334144 -0.0053424453 0.09921149 -0.11955032 -0.0026750725 -0.09835063 -0.016626501
-0.0062031946 0.09951786 0.12034885 0.15617321 -0.14717191 -0.012594706 -0.036847237 0.04872454
0.030328758 0.15989219 0.09087477 -0.2923943 0.19535741 0.12282864 0.16333722 -0.013981618
0.17247002 0.22035624 -0.1626044 -0.11561064 -0.14482802 0.19648682 0.1534076 0.12627608
-0.20068793 0.16793993 0.097428344 -0.087152936 0.27526146 -0.07752711 -0.20040071 -0.0691236
0.016316803 -0.13445763 -0.034427345 -0.11195294 -0.11482422 0.15818873 -0.30962175 -0.046329785
-0.1340831 -0.17366274 -0.180002 -0.19390588 -0.014216619 0.021103503 0.0494552 -0.029082458
0.053634632 0.14740987 0.04391669 0.25440872 -0.08907963 0.063986935 -0.065235 0.033573862
0.03125938 -0.010848724 0.22208363 -0.10330198 -0.061152942 -0.041750662 0.14617036 0.05059949
0.12844065 -0.056676053 0.15448274 -0.031585854 0.06518534 -0.056596234 -0.026893293 -0.1058834
-0.009940283 -0.14923888 -0.002637977 0.13549267 0.07718353 0.2847681 -0.0684168 -0.03978517
0.011417187 0.19558732 -0.07444445 -0.05813123 0.027815945 -0.0291208 -0.12947813 -0.044689097
-0.10679178 -0.22669514 -0.06499661 0.011215539 0.097964145 0.19195785 0.09485173 -0.073613115
0.013886253 0.2629095 -0.13721387 0.086515166 -0.15377636 -0.097734146 0.17370296 0.26172546
0.08362162 0.14445181 0.280033 0.3248901 0.024426434 0.2022814 0.023015486 0.024695877
0.0039823153 -0.2300525 0.057604972 0.11660949 -0.043975774 -0.094911925 -0.05867588 -0.06031686
0.2663558 -0.087654546 -0.12589772 0.049044963 -0.019667856 0.005489749 -0.1082243 0.0153254755
00000000: 115c c73c 88fb cebd d0cb 023e 50eb a23d
00000010: 3ba4 68bd b4ce 993d 8090 073e e6ff b4bd
00000020: b2f4 9d3d 0d22 10bd ceca a93d 9ed1 86be
00000030: 1288 f2bd 66e9 95bd 721a 19be b81b b73d
00000040: 3bb6 6dbe 7473 9a3d e630 b83e 5772 523c
00000050: 20b9 ab3d 0778 bb3d 58ef 2b3e 0ffb 733c
00000060: 2792 23bc 8151 373e 6779 973c 4dd7 293e
00000070: 5762 babc c0eb 813e a02b df3b ee59 e03d
00000080: a3b3 99be ffc1 f3bc 7433 893e 9404 823e
00000090: 8ddc 303e 73ce 6d3c d67d ad3d 3d4d 3bbe
000000a0: 7b16 7c3e 5f9f 3f3c 5cfb 6639 b1d1 143c
000000b0: 60a8 5a3e c6e6 453e d3cc ecbd 44fe 7bbd
000000c0: afa7 32be 7486 f8bb 91ac d4bd a5c5 09be
000000d0: 74f8 1ebd 4ee6 54be 3bb3 14bd a0e7 613e
000000e0: 56d2 7bbc f2cd e13d eba3 253d b633 683d
000000f0: 6b85 953d 0725 a9bd 4296 9d3c 3caf e43d
00000100: 2601 5bbc 0b8e 14be 06c6 c73d 87ec e43d
00000110: f59a f1bd 15c3 36bd c48a 2e3d 5bcb 023c
00000120: 5f88 643d 6360 3d3e 18fa af3d add0 d43d
00000130: 1759 e7bd e170 033e 0d33 d93d 6a88 21be
00000140: cc65 1e3e c9cd 1abd 6496 b83d a008 ae3e
00000150: 56e1 223e 8ae8 d63d e296 723d 1cfc 883d
00000160: 6020 843e 229d 9c3c a1a1 09be 2f3b 97be
00000170: 8cee f3bc 5196 1ebe 4fd9 073e 18bd 15be
00000180: 27cc babd 473b eabd db5c 8abd de8e 15be
00000190: 33e4 1bbe 6d7f 303d 30aa 06be a521 50be
000001a0: 3e32 3b3d 4a63 eabc 8475 193c 8d8a 12be
000001b0: bb61 3b3e 6fe9 bc3d dc03 5b3e 5aa5 683e
000001c0: ee2f 48bd 663b 623e bee1 e8bd d15e a23e
000001d0: 3569 dc3c e4e8 e2bd 530c 3ebd 52bf a13c
000001e0: f77e 063e 2fcf 85bc ae0f afbb 652f cb3d
000001f0: ccd6 f4bd 4550 2fbb 0e6c c9bd 4d34 88bc
00000200: 2b44 cbbb 05d0 cb3d 7579 f63d dfeb 1f3e
00000210: 3cb4 16be 075a 4ebc 21ed 16bd 6293 473d
00000220: 0474 f83c c7ba 233e 8d1c ba3d b5b4 95be
00000230: c60b 483e 958d fb3d df41 273e 2813 65bc
00000240: fb9b 303e 11a5 613e c581 26be 45c5 ecbd
00000250: cc4d 14be d733 493e e216 1d3e 844e 013e
00000260: 2381 4dbe 72f8 2b3e 8388 c73d 3d7d b2bd
00000270: 12ef 8c3e 89c6 9ebd d835 4dbe ad90 8dbd
00000280: d1aa 853c 43af 09be b003 0dbd 9547 e5bd
00000290: f628 ebbd 3afc 213e be86 9ebe 4dc4 3dbd
000002a0: 154d 09be a5d4 31be 7252 38be 438f 46be
000002b0: d2ec 68bc 41e1 ac3c 8991 4a3d 563e eebc
000002c0: fdaf 5b3d 9df2 163e fde1 333d dc41 823e
000002d0: 626f b6bd 950b 833d ed99 85bd bf84 093d
000002e0: d609 003d d9be 31bc e469 633e fd8f d3bd
000002f0: 827b 7abd be02 2bbd afad 153e 6941 4f3d
00000300: f285 033e 2625 68bd b930 1e3e 2b60 01bd
00000310: e47f 853d 74d1 67bd 534f dcbc 65d9 d8bd
00000320: 92dc 22bc 14d2 18be e9e1 2cbb 97be 0a3e
00000330: 6612 9e3d 20cd 913e 1b1e 8cbd c6f5 22bd
00000340: 270f 3b3c 0b48 483e 5576 98bd 031b 6ebd
00000350: 44de e33c be8e eebc ea95 04be ea0b 37bd
00000360: a6b5 dabd c522 68be f11c 85bd 61c1 373c
00000370: 6da1 c83d 9990 443e a041 c23d 79c2 96bd
00000380: 2b83 633c 139c 863e cb81 0cbe dd2e b13d
00000390: 8d77 1dbe d728 c8bd 30df 313e e100 863e
000003a0: d041 ab3d 2deb 133e 7c60 8f3e ff57 a63e
000003b0: f219 c83c db22 4f3e f98a bc3c 024f ca3c
000003c0: 157e 823b e292 6bbe 31f3 6b3d f5d0 ee3d
000003d0: f11f 34bd 2f61 c2bd 1f56 70bd d00e 77bd
000003e0: ca5f 883e 3a84 b3bd 55eb 00be 5fe3 483d
000003f0: 7c1e a1bc 5ae3 b33b b4a4 ddbd b417 7b3c

functional_7_1/dense_24_1/Add/ReadVariableOp:0 f4 [64]
0.0771273 0.033659115 0.03902348 -0.0041233725 0.17651872 -0.016960975 0.021920152 0.06621976
0.022831656 0.05533597 -0.06947541 -0.08834868 0.023076655 0.16364183 0.044601534 0.08620569
-0.019462338 0.102668665 0.0313577 -0.08612748 0.15469451 0.04645982 0.089143686 0.05617549
-0.00071491196 -0.059914522 0.056661405 0.10412692 0.07537166 0.360402 0.0753249 0.018619167
0.06012244 0.13416348 0.08548883 0.20841463 -0.040473443 -0.023756636 0.03415772 -0.03491062
0.18817613 0.039480954 0.16024694 0.17498112 0.15014982 0.12777154 -0.042159397 0.047728367
0.03559754 -0.09257789 0.0738118 -0.066387735 0.10041199 -0.11890863 0.17356865 0.067455955
0.07233196 0.027173331 0.0036710997 0.14127976 -0.043443322 0.07301593 0.08979817 0.08755662
00000000: ebf4 9d3d 24de 093d 16d7 1f3d 5b1d 87bb
00000010: 53c1 343e bef1 8abc e491 b33c 3a9e 873d
00000020: 7409 bb3c f8a7 623d 2049 8ebd 27f0 b4bd
00000030: 410b bd3c b991 273e 19b0 363d 9c8c b03d
00000040: 7b6f 9fbc f343 d23d ee70 003d 9b63 b0bd
00000050: 3d68 1e3e a74c 3e3d f790 b63d 4518 663d
00000060: ee68 3bba ee68 75bd ca15 683d 7f40 d53d
00000070: 755c 9a3d 9c86 b83e f143 9a3d 3987 983c
00000080: f342 763d 2762 093e c514 af3d a56a 553e
00000090: 7bc7 25bd 479d c2bc f7e8 0b3d 70fe 0ebd
000000a0: 3eb1 403e c8b6 213d c617 243e 402e 333e
000000b0: e0c0 193e 8bd6 023e 55af 2cbd d27e 433d
000000c0: bace 113d 7a99 bdbd a42a 973d 4bf6 87bd
000000d0: cda4 cd3d 5e86 f3bd fbbb 313e 5926 8a3d
000000e0: c722 943d 9b9a de3c d596 703b a4ab 103e
000000f0: a0f1 31bd 6089 953d 1ae8 b73d e350 b33d

functional_7_1/dense_23_1/Cast/ReadVariableOp:0 f4 [51, 64]
0.006683435 -0.058727764 -0.081402756 -0.061459254 0.06400283 -0.00573471 -0.06060651 -0.026894616
-0.106371336 -0.09039756 -0.09320978 -0.111764796 -0.004895033 -0.01240558 0.05716366 -0.035505183
-0.032643054 -0.092245266 -0.08071892 0.02338536 -0.060196124 -0.061052907 -0.0011177867 0.008184858
-0.08362823 0.116472065 -0.013020691 -0.039854705 -0.04526879 0.026755631 8.914551e-05 -0.01924331
-0.0024615373 0.061529424 0.075993896 0.004351572 0.11591955 -0.009059813 -0.098541856 -0.051062588
-0.019315157 0.05693149 -0.039530624 -0.067069136 -0.07454691 0.030493487 -0.02421319 -0.0110275475
-0.055535052 0.03012753 0.005431098 -0.041110788 0.049465824 -0.109676376 -0.0073231 -0.028144913
-0.030041572 0.022163954 0.021008646 -0.028723702 -0.059227657 -0.020339143 0.03626824 -0.037990678
0.021267591 -0.09461124 -0.049681462 -0.0051394803 0.091460526 0.002946307 0.016410464 -0.101825535
-0.06135002 0.022385549 0.025534716 0.021739192 -0.015978545 -0.049661107 0.0952445 -0.0048804623
-0.059395064 -0.0453561 0.010713959 -0.032931305 -0.18145762 -0.07285564 -0.004600229 0.0074195936
-0.05580574 0.12664351 0.0865167 0.06392532 -0.03516951 -0.054803602 0.024487652 0.095385455
-0.06638583 -0.06913956 -0.02310558 -0.01428121 0.22621928 -0.07777887 -0.05801137 -0.06555897
-0.076552264 0.0877736 -0.012155399 0.1321522 -0.0145172775 -0.0017280775 -0.07014732 0.00516438
-0.17484976 -0.008198188 0.039871514 -0.030210005 -0.06658498 -0.018769337 0.039789975 -0.043780632
0.016735235 -0.026303984 -0.010906814 -0.070011444 0.086556576 -0.017519902 0.049125113 -0.10417212
-0.00021138432 -0.13847962 -0.038926117 -0.062062055 0.13433264 -0.016319204 -0.0978109 -0.100517064
-0.09772452 0.039789997 -0.041482445 -0.009547512 -0.028267387 -0.04748914 0.15900683 -0.0024237647
-0.05629871 -0.05239897 -0.098983794 -0.0137782125 -0.13351618 -0.07205031 -0.017546035 0.030227408
-0.10228806 0.19699705 0.03791242 0.055030964 0.01266274 0.015231391 -0.040863667 0.021184558
-0.024111878 0.028735366 -0.018669454 -0.027281344 0.28712627 -0.07410971 -0.052756194 -0.11250954
-0.047515973 0.13890517 -0.059441097 0.14556901 -0.02439454 0.045781367 -0.06526065 0.039382663
-0.075724125 0.05007993 0.0566977 -0.017895252 -0.04624623 -0.06259391 0.10338967 -0.069970995
-0.013754636 0.0029833312 0.053187516 -0.054905757 0.010034104 0.032283276 0.052263778 -0.054732006
0.016673628 0.078327484 0.09528376 0.046716664 -0.10948322 0.037847396 0.054691684 0.04620862
0.11253158 0.08296663 0.08877761 0.08599803 0.02034935 0.061105665 -0.10438002 0.06003223
0.05280906 0.08192926 0.111885905 0.0025554784 0.13369666 0.116466545 -0.012171334 0.008239517
0.08706976 -0.20290211 -0.017892059 -0.020409966 0.055493865 0.018131755 -0.016821865 -0.004627899
0.05762759 -0.044211596 -0.057679188 0.032934748 -0.18831992 0.008069973 0.12701817 0.109344475
0.06441256 -0.071694486 0.07317537 -0.021271922 0.055501197 -0.041803207 0.055040132 0.025346301
0.12598932 -0.013037602 -0.049025312 0.04856252 -0.014758661 0.11066927 -0.041683268 0.058759805
-0.017804967 -0.036630966 -0.025662074 0.052758954 0.04725659 0.032882847 -0.08254438 0.0922249
00000000: b700 db3b 868c 70bd 7db6 a6bd b3bc 7bbd
00000010: ea13 833d 3cea bbbb 883e 78bd 1952 dcbc
00000020: 37d9 d9bd 5b22 b9bd c5e4 bebd f1e4 e4bd
00000030: 8366 a0bb c640 4bbc 7124 6a3d e26d 11bd
00000040: b9b4 05bd 16eb bcbd f64f a5bd a892 bf3c
00000050: 3690 76bd 9d12 7abd b382 92ba c819 063c
00000060: 4745 abbd e888 ee3d bd54 55bc b03e 23bd
00000070: c46b 39bd a02e db3c a2f3 ba38 25a4 9dbc
00000080: be51 21bb 4706 7c3d b0a2 9b3d a297 8e3b
00000090: 3b67 ed3d 9c6f 14bc 50d0 c9bd 0127 51bd
000000a0: d23a 9ebc fe30 693d ddea 21bd 8b5b 89bd
000000b0: 0dac 98bd 7acd f93c bd5a c6bc e3ac 34bc
000000c0: b978 63bd 03ce f63c 5af7 b13b c963 28bd
000000d0: ad9c 4a3d 029e e0bd 9ef6 efbb 2990 e6bc
000000e0: be19 f6bc 2e91 b53c 531a ac3c f84d ebbc
000000f0: b398 72bd 469e a6bc 028e 143d 1d9c 1bbd
00000100: 5f39 ae3c 8ac3 c1bd ca7e 4bbd 1669 a8bb
00000110: a84f bb3d d416 413b 3d6f 863c e889 d0bd
00000120: 294a 7bbd e661 b73c 2e2e d13c 6416 b23c
00000130: 70e5 82bc 7269 4bbd 8c0f c33d 49ec 9fbb
00000140: 3d48 73bd 51c7 39bd 9a89 2f3c fae2 06bd
00000150: 07d0 39be 5635 95bd 85bd 96bb 1020 f33b
00000160: 8f94 64bd d6ae 013e ab2f b13d 47eb 823d
00000170: e70d 10bd be79 60bd 549a c83c 7359 c33d
00000180: 4bf5 87bd 0b99 8dbd ea47 bdbc bcfb 69bc
00000190: 07a6 673e 874a 9fbd 559d 6dbd c843 86bd
000001a0: 6fc7 9cbd a5c2 b33d 7027 47bc e852 073e
000001b0: e0d9 6dbc a980 e2ba 66a9 8fbd f639 a93b
000001c0: d10b 33be b151 06bc 5050 233d f97a f7bc
000001d0: b55d 88bd 27c2 99bc d0fa 223d 5253 33bd
000001e0: 5518 893c 747b d7bc 7eb2 32bc 2962 8fbd
000001f0: 9344 b13d e685 8fbc 6a37 493d 3158 d5bd
00000200: 0ca7 5db9 9acd 0dbe fe70 1fbd c834 7ebd
00000210: 7f8e 093e daaf 85bc 1551 c8bd e4db cdbd
00000220: cb23 c8bd d6fa 223d 7fe9 29bd 2b6d 1cbc
00000230: 0291 e7bc f983 42bd b0d2 223e 06d8 1ebb
00000240: 7a99 66bd 4da0 56bd 04b8 cabd 03be 61bc
00000250: 77b8 08be 1d8f 93bd b4bc 8fbc 789f f73c
00000260: 677c d1bd 98b9 493e 0e4a 1b3d 2668 613d
00000270: 6277 4f3c 168d 793c a960 27bd 3d8b ad3c
00000280: 4686 c5bc 6e66 eb3c aff0 98bc 207d dfbc
00000290: 3702 933e d5c6 97bd e116 58bd 676b e6bd
000002a0: 1ca0 42bd 283d 0e3e 8278 73bd 0b10 153e
000002b0: 0fd7 c7bc 3e85 3b3d 60a7 85bd b74f 213d
000002c0: 4015 9bbd 9d20 4d3d d93b 683d 1099 92bc
000002d0: b06c 3dbd 3c31 80bd f7bd d33d f44c 8fbd
000002e0: 205b 61bc fe83 433b 27db 593d dce4 60bd
000002f0: 1566 243c 783b 043d 8b12 563d ab2e 60bd
00000300: 2297 883c 296a a03d 2224 c33d f959 3f3d
00000310: bd38 e0bd df05 1b3d 6304 603d 4045 3d3d
00000320: f576 e63d 69ea a93d 09d1 b53d bc1f b03d
00000330: aeb3 a63c ef49 7a3d 31c5 d5bd 5be4 753d
00000340: 504e 583d 87ca a73d 7024 e53d d079 273b
00000350: c7e7 083e 0386 ee3d 466a 47bc 0aff 063c
00000360: a151 b23d 92c5 4fbe 5e92 92bc cd32 a7bc
00000370: 894d 633d 0c89 943c 02ce 89bc a1a5 97bb
00000380: e80a 6c3d 3817 35bd 0341 6cbd 96e6 063d
00000390: f0d6 40be ec37 043c 0d11 023e ffef df3d
000003a0: bbea 833d 8fd4 92bd f8dc 953d 7442 aebc
000003b0: 3955 633d d739 2bbd c371 613d 0ca3 cf3c
000003c0: 5803 013e ab9b 55bc c4ce 48bd 7ee9 463d
000003d0: 50ce 71bc 92a6 e23d 13bc 2abd 1fae 703d
000003e0: b9db 91bc 5a0a 16bd 4539 d2bc c619 583d
000003f0: 2090 413d 2ab0 063d 070d a9bd 69e0 bc3d

functional_7_1/dense_23_1/Add/ReadVariableOp:0 f4 [64]
0.13930652 0.032229815 0.13213709 0.065046534 0.0089950785 0.06231432 0.020390462 0.07212242
0.11551575 0.082766004 0.069512516 0.11088831 0.011014607 0.11770096 0.067844555 0.17008483
0.056382697 0.16256163 0.14933151 0.093639396 0.06783959 0.13738213 0.08570937 0.11906354
0.1155217 0.06354622 0.07849465 0.15564953 0.16474059 0.07667218 0.124154754 0.109958656
0.17876327 0.15174839 0.03322987 0.06578575 0.08620421 0.17013921 0.14120162 0.14622861
0.20900273 0.13230294 -0.03444349 0.12031114 0.079918094 0.11705445 0.064967684 0.1436997
0.10727921 0.07132011 -0.00053644023 0.076233394 0.14077252 0.011956451 0.089354694 0.055479668
-0.007451248 0.00064973946 0.1188841 0.13156067 0.14571849 0.15201737 0.13542075 0.11086864
00000000: 5ea6 0e3e 6903 043d f24e 073e 1e37 853d
00000010: 1860 133c 4d3d 7f3d e609 a73c ebb4 933d
00000020: 8693 ec3d 3981 a93d 945c 8e3d 6919 e33d
00000030: 9c76 343c 330d f13d 16f2 8a3d b82a 2e3e
00000040: 8bf1 663d 8e76 263e 5cea 183e 03c6 bf3d
00000050: 7cef 8a3d e7ad 0c3e 6588 af3d 96d7 f33d
00000060: a496 ec3d 8524 823d cec1 a03d 9762 1f3e
00000070: c2b1 283e 4e06 9d3d d944 fe3d 0132 e13d
00000080: b80d 373e ee63 1b3e 0b1c 083d aeba 863d
00000090: d58b b03d f938 2e3e 2897 103e f4bc 153e
000000a0: d004 563e 6c7a 073e 9e14 0dbd b065 f63d
000000b0: 19ac a33d 3eba ef3d c70d 853d 0426 133e
000000c0: 34b5 db3d 4710 923d e59f 0cba 4120 9c3d
000000d0: ac26 103e fee4 433c 98ff b63d a63e 633d
000000e0: 9929 f4bb 4753 2a3a 8279 f33d d7b7 063e
000000f0: 3a37 153e 71aa 1b3e bdab 0a3e 190f e33d
